Model: "sequential"
┏━━━━━━━━━━━━━━━━━━━━━━━━━━━━━━━━━┳━━━━━━━━━━━━━━━━━━━━━━━━┳━━━━━━━━━━━━━━━┓
┃ Layer (type)                    ┃ Output Shape           ┃       Param # ┃
┡━━━━━━━━━━━━━━━━━━━━━━━━━━━━━━━━━╇━━━━━━━━━━━━━━━━━━━━━━━━╇━━━━━━━━━━━━━━━┩
│ conv2d_1 (Conv2D)               │ (None, 28, 28, 6)      │           156 │
├─────────────────────────────────┼────────────────────────┼───────────────┤
│ average_pooling2d               │ (None, 14, 14, 6)      │             0 │
│ (AveragePooling2D)              │                        │               │
├─────────────────────────────────┼────────────────────────┼───────────────┤
│ conv2d_2 (Conv2D)               │ (None, 10, 10, 16)     │         2,416 │
├─────────────────────────────────┼────────────────────────┼───────────────┤
│ average_pooling2d_1             │ (None, 5, 5, 16)       │             0 │
│ (AveragePooling2D)              │                        │               │
├─────────────────────────────────┼────────────────────────┼───────────────┤
│ flatten (Flatten)               │ (None, 400)            │             0 │
├─────────────────────────────────┼────────────────────────┼───────────────┤
│ dense (Dense)                   │ (None, 120)            │        48,120 │
├─────────────────────────────────┼────────────────────────┼───────────────┤
│ dense_1 (Dense)                 │ (None, 84)             │        10,164 │
├─────────────────────────────────┼────────────────────────┼───────────────┤
│ dense_2 (Dense)                 │ (None, 10)             │           850 │
└─────────────────────────────────┴────────────────────────┴───────────────┘
 Total params: 61,706 (241.04 KB)
 Trainable params: 61,706 (241.04 KB)
 Non-trainable params: 0 (0.00 B)
Model: "sequential_1"
┏━━━━━━━━━━━━━━━━━━━━━━━━━━━━━━━━━┳━━━━━━━━━━━━━━━━━━━━━━━━┳━━━━━━━━━━━━━━━┓
┃ Layer (type)                    ┃ Output Shape           ┃       Param # ┃
┡━━━━━━━━━━━━━━━━━━━━━━━━━━━━━━━━━╇━━━━━━━━━━━━━━━━━━━━━━━━╇━━━━━━━━━━━━━━━┩
│ conv2d_3 (Conv2D)               │ (None, 55, 55, 96)     │        34,944 │
├─────────────────────────────────┼────────────────────────┼───────────────┤
│ max_pooling2d (MaxPooling2D)    │ (None, 27, 27, 96)     │             0 │
├─────────────────────────────────┼────────────────────────┼───────────────┤
│ conv2d_4 (Conv2D)               │ (None, 27, 27, 256)    │       614,656 │
├─────────────────────────────────┼────────────────────────┼───────────────┤
│ max_pooling2d_1 (MaxPooling2D)  │ (None, 13, 13, 256)    │             0 │
├─────────────────────────────────┼────────────────────────┼───────────────┤
│ conv2d_5 (Conv2D)               │ (None, 13, 13, 384)    │       885,120 │
├─────────────────────────────────┼────────────────────────┼───────────────┤
│ conv2d_6 (Conv2D)               │ (None, 13, 13, 384)    │     1,327,488 │
├─────────────────────────────────┼────────────────────────┼───────────────┤
│ conv2d_7 (Conv2D)               │ (None, 13, 13, 256)    │       884,992 │
├─────────────────────────────────┼────────────────────────┼───────────────┤
│ max_pooling2d_2 (MaxPooling2D)  │ (None, 6, 6, 256)      │             0 │
├─────────────────────────────────┼────────────────────────┼───────────────┤
│ flatten_1 (Flatten)             │ (None, 9216)           │             0 │
├─────────────────────────────────┼────────────────────────┼───────────────┤
│ dense_3 (Dense)                 │ (None, 4096)           │    37,752,832 │
├─────────────────────────────────┼────────────────────────┼───────────────┤
│ dropout (Dropout)               │ (None, 4096)           │             0 │
├─────────────────────────────────┼────────────────────────┼───────────────┤
│ dense_4 (Dense)                 │ (None, 4096)           │    16,781,312 │
├─────────────────────────────────┼────────────────────────┼───────────────┤
│ dropout_1 (Dropout)             │ (None, 4096)           │             0 │
├─────────────────────────────────┼────────────────────────┼───────────────┤
│ dense_5 (Dense)                 │ (None, 1000)           │     4,097,000 │
└─────────────────────────────────┴────────────────────────┴───────────────┘
 Total params: 62,378,344 (237.95 MB)
 Trainable params: 62,378,344 (237.95 MB)
 Non-trainable params: 0 (0.00 B)
Model: "vgg16"
┏━━━━━━━━━━━━━━━━━━━━━━━━━━━━━━━━━┳━━━━━━━━━━━━━━━━━━━━━━━━┳━━━━━━━━━━━━━━━┓
┃ Layer (type)                    ┃ Output Shape           ┃       Param # ┃
┡━━━━━━━━━━━━━━━━━━━━━━━━━━━━━━━━━╇━━━━━━━━━━━━━━━━━━━━━━━━╇━━━━━━━━━━━━━━━┩
│ input_layer_2 (InputLayer)      │ (None, 224, 224, 3)    │             0 │
├─────────────────────────────────┼────────────────────────┼───────────────┤
│ block1_conv1 (Conv2D)           │ (None, 224, 224, 64)   │         1,792 │
├─────────────────────────────────┼────────────────────────┼───────────────┤
│ block1_conv2 (Conv2D)           │ (None, 224, 224, 64)   │        36,928 │
├─────────────────────────────────┼────────────────────────┼───────────────┤
│ block1_pool (MaxPooling2D)      │ (None, 112, 112, 64)   │             0 │
├─────────────────────────────────┼────────────────────────┼───────────────┤
│ block2_conv1 (Conv2D)           │ (None, 112, 112, 128)  │        73,856 │
├─────────────────────────────────┼────────────────────────┼───────────────┤
│ block2_conv2 (Conv2D)           │ (None, 112, 112, 128)  │       147,584 │
├─────────────────────────────────┼────────────────────────┼───────────────┤
│ block2_pool (MaxPooling2D)      │ (None, 56, 56, 128)    │             0 │
├─────────────────────────────────┼────────────────────────┼───────────────┤
│ block3_conv1 (Conv2D)           │ (None, 56, 56, 256)    │       295,168 │
├─────────────────────────────────┼────────────────────────┼───────────────┤
│ block3_conv2 (Conv2D)           │ (None, 56, 56, 256)    │       590,080 │
├─────────────────────────────────┼────────────────────────┼───────────────┤
│ block3_conv3 (Conv2D)           │ (None, 56, 56, 256)    │       590,080 │
├─────────────────────────────────┼────────────────────────┼───────────────┤
│ block3_pool (MaxPooling2D)      │ (None, 28, 28, 256)    │             0 │
├─────────────────────────────────┼────────────────────────┼───────────────┤
│ block4_conv1 (Conv2D)           │ (None, 28, 28, 512)    │     1,180,160 │
├─────────────────────────────────┼────────────────────────┼───────────────┤
│ block4_conv2 (Conv2D)           │ (None, 28, 28, 512)    │     2,359,808 │
├─────────────────────────────────┼────────────────────────┼───────────────┤
│ block4_conv3 (Conv2D)           │ (None, 28, 28, 512)    │     2,359,808 │
├─────────────────────────────────┼────────────────────────┼───────────────┤
│ block4_pool (MaxPooling2D)      │ (None, 14, 14, 512)    │             0 │
├─────────────────────────────────┼────────────────────────┼───────────────┤
│ block5_conv1 (Conv2D)           │ (None, 14, 14, 512)    │     2,359,808 │
├─────────────────────────────────┼────────────────────────┼───────────────┤
│ block5_conv2 (Conv2D)           │ (None, 14, 14, 512)    │     2,359,808 │
├─────────────────────────────────┼────────────────────────┼───────────────┤
│ block5_conv3 (Conv2D)           │ (None, 14, 14, 512)    │     2,359,808 │
├─────────────────────────────────┼────────────────────────┼───────────────┤
│ block5_pool (MaxPooling2D)      │ (None, 7, 7, 512)      │             0 │
├─────────────────────────────────┼────────────────────────┼───────────────┤
│ flatten (Flatten)               │ (None, 25088)          │             0 │
├─────────────────────────────────┼────────────────────────┼───────────────┤
│ fc1 (Dense)                     │ (None, 4096)           │   102,764,544 │
├─────────────────────────────────┼────────────────────────┼───────────────┤
│ fc2 (Dense)                     │ (None, 4096)           │    16,781,312 │
├─────────────────────────────────┼────────────────────────┼───────────────┤
│ predictions (Dense)             │ (None, 1000)           │     4,097,000 │
└─────────────────────────────────┴────────────────────────┴───────────────┘
 Total params: 138,357,544 (527.79 MB)
 Trainable params: 138,357,544 (527.79 MB)
 Non-trainable params: 0 (0.00 B)
Model: "inception_v3"
┏━━━━━━━━━━━━━━━━━━━━━┳━━━━━━━━━━━━━━━━━━━┳━━━━━━━━━━━━┳━━━━━━━━━━━━━━━━━━━┓
┃ Layer (type)        ┃ Output Shape      ┃    Param # ┃ Connected to      ┃
┡━━━━━━━━━━━━━━━━━━━━━╇━━━━━━━━━━━━━━━━━━━╇━━━━━━━━━━━━╇━━━━━━━━━━━━━━━━━━━┩
…
│ (BatchNormalizatio… │ 192)              │            │                   │
├─────────────────────┼───────────────────┼────────────┼───────────────────┤
│ activation_70       │ (None, 17, 17,    │          0 │ batch_normalizat… │
│ (Activation)        │ 192)              │            │                   │
├─────────────────────┼───────────────────┼────────────┼───────────────────┤
│ activation_74       │ (None, 17, 17,    │          0 │ batch_normalizat… │
│ (Activation)        │ 192)              │            │                   │
├─────────────────────┼───────────────────┼────────────┼───────────────────┤
│ conv2d_79 (Conv2D)  │ (None, 8, 8, 320) │    552,960 │ activation_70[0]… │
├─────────────────────┼───────────────────┼────────────┼───────────────────┤
│ conv2d_83 (Conv2D)  │ (None, 8, 8, 192) │    331,776 │ activation_74[0]… │
├─────────────────────┼───────────────────┼────────────┼───────────────────┤
│ batch_normalizatio… │ (None, 8, 8, 320) │        960 │ conv2d_79[0][0]   │
│ (BatchNormalizatio… │                   │            │                   │
├─────────────────────┼───────────────────┼────────────┼───────────────────┤
│ batch_normalizatio… │ (None, 8, 8, 192) │        576 │ conv2d_83[0][0]   │
│ (BatchNormalizatio… │                   │            │                   │
├─────────────────────┼───────────────────┼────────────┼───────────────────┤
│ activation_71       │ (None, 8, 8, 320) │          0 │ batch_normalizat… │
│ (Activation)        │                   │            │                   │
├─────────────────────┼───────────────────┼────────────┼───────────────────┤
│ activation_75       │ (None, 8, 8, 192) │          0 │ batch_normalizat… │
│ (Activation)        │                   │            │                   │
├─────────────────────┼───────────────────┼────────────┼───────────────────┤
│ max_pooling2d_6     │ (None, 8, 8, 768) │          0 │ mixed7[0][0]      │
│ (MaxPooling2D)      │                   │            │                   │
├─────────────────────┼───────────────────┼────────────┼───────────────────┤
│ mixed8              │ (None, 8, 8,      │          0 │ activation_71[0]… │
│ (Concatenate)       │ 1280)             │            │ activation_75[0]… │
│                     │                   │            │ max_pooling2d_6[… │
├─────────────────────┼───────────────────┼────────────┼───────────────────┤
│ conv2d_88 (Conv2D)  │ (None, 8, 8, 448) │    573,440 │ mixed8[0][0]      │
├─────────────────────┼───────────────────┼────────────┼───────────────────┤
│ batch_normalizatio… │ (None, 8, 8, 448) │      1,344 │ conv2d_88[0][0]   │
│ (BatchNormalizatio… │                   │            │                   │
├─────────────────────┼───────────────────┼────────────┼───────────────────┤
│ activation_80       │ (None, 8, 8, 448) │          0 │ batch_normalizat… │
│ (Activation)        │                   │            │                   │
├─────────────────────┼───────────────────┼────────────┼───────────────────┤
│ conv2d_85 (Conv2D)  │ (None, 8, 8, 384) │    491,520 │ mixed8[0][0]      │
├─────────────────────┼───────────────────┼────────────┼───────────────────┤
│ conv2d_89 (Conv2D)  │ (None, 8, 8, 384) │  1,548,288 │ activation_80[0]… │
├─────────────────────┼───────────────────┼────────────┼───────────────────┤
│ batch_normalizatio… │ (None, 8, 8, 384) │      1,152 │ conv2d_85[0][0]   │
│ (BatchNormalizatio… │                   │            │                   │
├─────────────────────┼───────────────────┼────────────┼───────────────────┤
│ batch_normalizatio… │ (None, 8, 8, 384) │      1,152 │ conv2d_89[0][0]   │
│ (BatchNormalizatio… │                   │            │                   │
├─────────────────────┼───────────────────┼────────────┼───────────────────┤
│ activation_77       │ (None, 8, 8, 384) │          0 │ batch_normalizat… │
│ (Activation)        │                   │            │                   │
├─────────────────────┼───────────────────┼────────────┼───────────────────┤
│ activation_81       │ (None, 8, 8, 384) │          0 │ batch_normalizat… │
│ (Activation)        │                   │            │                   │
├─────────────────────┼───────────────────┼────────────┼───────────────────┤
│ conv2d_86 (Conv2D)  │ (None, 8, 8, 384) │    442,368 │ activation_77[0]… │
├─────────────────────┼───────────────────┼────────────┼───────────────────┤
│ conv2d_87 (Conv2D)  │ (None, 8, 8, 384) │    442,368 │ activation_77[0]… │
├─────────────────────┼───────────────────┼────────────┼───────────────────┤
│ conv2d_90 (Conv2D)  │ (None, 8, 8, 384) │    442,368 │ activation_81[0]… │
├─────────────────────┼───────────────────┼────────────┼───────────────────┤
│ conv2d_91 (Conv2D)  │ (None, 8, 8, 384) │    442,368 │ activation_81[0]… │
├─────────────────────┼───────────────────┼────────────┼───────────────────┤
│ average_pooling2d_9 │ (None, 8, 8,      │          0 │ mixed8[0][0]      │
│ (AveragePooling2D)  │ 1280)             │            │                   │
├─────────────────────┼───────────────────┼────────────┼───────────────────┤
│ conv2d_84 (Conv2D)  │ (None, 8, 8, 320) │    409,600 │ mixed8[0][0]      │
├─────────────────────┼───────────────────┼────────────┼───────────────────┤
│ batch_normalizatio… │ (None, 8, 8, 384) │      1,152 │ conv2d_86[0][0]   │
│ (BatchNormalizatio… │                   │            │                   │
├─────────────────────┼───────────────────┼────────────┼───────────────────┤
│ batch_normalizatio… │ (None, 8, 8, 384) │      1,152 │ conv2d_87[0][0]   │
│ (BatchNormalizatio… │                   │            │                   │
├─────────────────────┼───────────────────┼────────────┼───────────────────┤
│ batch_normalizatio… │ (None, 8, 8, 384) │      1,152 │ conv2d_90[0][0]   │
│ (BatchNormalizatio… │                   │            │                   │
├─────────────────────┼───────────────────┼────────────┼───────────────────┤
│ batch_normalizatio… │ (None, 8, 8, 384) │      1,152 │ conv2d_91[0][0]   │
│ (BatchNormalizatio… │                   │            │                   │
├─────────────────────┼───────────────────┼────────────┼───────────────────┤
│ conv2d_92 (Conv2D)  │ (None, 8, 8, 192) │    245,760 │ average_pooling2… │
├─────────────────────┼───────────────────┼────────────┼───────────────────┤
│ batch_normalizatio… │ (None, 8, 8, 320) │        960 │ conv2d_84[0][0]   │
│ (BatchNormalizatio… │                   │            │                   │
├─────────────────────┼───────────────────┼────────────┼───────────────────┤
│ activation_78       │ (None, 8, 8, 384) │          0 │ batch_normalizat… │
│ (Activation)        │                   │            │                   │
├─────────────────────┼───────────────────┼────────────┼───────────────────┤
│ activation_79       │ (None, 8, 8, 384) │          0 │ batch_normalizat… │
│ (Activation)        │                   │            │                   │
├─────────────────────┼───────────────────┼────────────┼───────────────────┤
│ activation_82       │ (None, 8, 8, 384) │          0 │ batch_normalizat… │
│ (Activation)        │                   │            │                   │
├─────────────────────┼───────────────────┼────────────┼───────────────────┤
│ activation_83       │ (None, 8, 8, 384) │          0 │ batch_normalizat… │
│ (Activation)        │                   │            │                   │
├─────────────────────┼───────────────────┼────────────┼───────────────────┤
│ batch_normalizatio… │ (None, 8, 8, 192) │        576 │ conv2d_92[0][0]   │
│ (BatchNormalizatio… │                   │            │                   │
├─────────────────────┼───────────────────┼────────────┼───────────────────┤
│ activation_76       │ (None, 8, 8, 320) │          0 │ batch_normalizat… │
│ (Activation)        │                   │            │                   │
├─────────────────────┼───────────────────┼────────────┼───────────────────┤
│ mixed9_0            │ (None, 8, 8, 768) │          0 │ activation_78[0]… │
│ (Concatenate)       │                   │            │ activation_79[0]… │
├─────────────────────┼───────────────────┼────────────┼───────────────────┤
│ concatenate         │ (None, 8, 8, 768) │          0 │ activation_82[0]… │
│ (Concatenate)       │                   │            │ activation_83[0]… │
├─────────────────────┼───────────────────┼────────────┼───────────────────┤
│ activation_84       │ (None, 8, 8, 192) │          0 │ batch_normalizat… │
│ (Activation)        │                   │            │                   │
├─────────────────────┼───────────────────┼────────────┼───────────────────┤
│ mixed9              │ (None, 8, 8,      │          0 │ activation_76[0]… │
│ (Concatenate)       │ 2048)             │            │ mixed9_0[0][0],   │
│                     │                   │            │ concatenate[0][0… │
│                     │                   │            │ activation_84[0]… │
├─────────────────────┼───────────────────┼────────────┼───────────────────┤
│ conv2d_97 (Conv2D)  │ (None, 8, 8, 448) │    917,504 │ mixed9[0][0]      │
├─────────────────────┼───────────────────┼────────────┼───────────────────┤
│ batch_normalizatio… │ (None, 8, 8, 448) │      1,344 │ conv2d_97[0][0]   │
│ (BatchNormalizatio… │                   │            │                   │
├─────────────────────┼───────────────────┼────────────┼───────────────────┤
│ activation_89       │ (None, 8, 8, 448) │          0 │ batch_normalizat… │
│ (Activation)        │                   │            │                   │
├─────────────────────┼───────────────────┼────────────┼───────────────────┤
│ conv2d_94 (Conv2D)  │ (None, 8, 8, 384) │    786,432 │ mixed9[0][0]      │
├─────────────────────┼───────────────────┼────────────┼───────────────────┤
│ conv2d_98 (Conv2D)  │ (None, 8, 8, 384) │  1,548,288 │ activation_89[0]… │
├─────────────────────┼───────────────────┼────────────┼───────────────────┤
│ batch_normalizatio… │ (None, 8, 8, 384) │      1,152 │ conv2d_94[0][0]   │
│ (BatchNormalizatio… │                   │            │                   │
├─────────────────────┼───────────────────┼────────────┼───────────────────┤
│ batch_normalizatio… │ (None, 8, 8, 384) │      1,152 │ conv2d_98[0][0]   │
│ (BatchNormalizatio… │                   │            │                   │
├─────────────────────┼───────────────────┼────────────┼───────────────────┤
│ activation_86       │ (None, 8, 8, 384) │          0 │ batch_normalizat… │
│ (Activation)        │                   │            │                   │
├─────────────────────┼───────────────────┼────────────┼───────────────────┤
│ activation_90       │ (None, 8, 8, 384) │          0 │ batch_normalizat… │
│ (Activation)        │                   │            │                   │
├─────────────────────┼───────────────────┼────────────┼───────────────────┤
│ conv2d_95 (Conv2D)  │ (None, 8, 8, 384) │    442,368 │ activation_86[0]… │
├─────────────────────┼───────────────────┼────────────┼───────────────────┤
│ conv2d_96 (Conv2D)  │ (None, 8, 8, 384) │    442,368 │ activation_86[0]… │
├─────────────────────┼───────────────────┼────────────┼───────────────────┤
│ conv2d_99 (Conv2D)  │ (None, 8, 8, 384) │    442,368 │ activation_90[0]… │
├─────────────────────┼───────────────────┼────────────┼───────────────────┤
│ conv2d_100 (Conv2D) │ (None, 8, 8, 384) │    442,368 │ activation_90[0]… │
├─────────────────────┼───────────────────┼────────────┼───────────────────┤
│ average_pooling2d_… │ (None, 8, 8,      │          0 │ mixed9[0][0]      │
│ (AveragePooling2D)  │ 2048)             │            │                   │
├─────────────────────┼───────────────────┼────────────┼───────────────────┤
│ conv2d_93 (Conv2D)  │ (None, 8, 8, 320) │    655,360 │ mixed9[0][0]      │
├─────────────────────┼───────────────────┼────────────┼───────────────────┤
│ batch_normalizatio… │ (None, 8, 8, 384) │      1,152 │ conv2d_95[0][0]   │
│ (BatchNormalizatio… │                   │            │                   │
├─────────────────────┼───────────────────┼────────────┼───────────────────┤
│ batch_normalizatio… │ (None, 8, 8, 384) │      1,152 │ conv2d_96[0][0]   │
│ (BatchNormalizatio… │                   │            │                   │
├─────────────────────┼───────────────────┼────────────┼───────────────────┤
│ batch_normalizatio… │ (None, 8, 8, 384) │      1,152 │ conv2d_99[0][0]   │
│ (BatchNormalizatio… │                   │            │                   │
├─────────────────────┼───────────────────┼────────────┼───────────────────┤
│ batch_normalizatio… │ (None, 8, 8, 384) │      1,152 │ conv2d_100[0][0]  │
│ (BatchNormalizatio… │                   │            │                   │
├─────────────────────┼───────────────────┼────────────┼───────────────────┤
│ conv2d_101 (Conv2D) │ (None, 8, 8, 192) │    393,216 │ average_pooling2… │
├─────────────────────┼───────────────────┼────────────┼───────────────────┤
│ batch_normalizatio… │ (None, 8, 8, 320) │        960 │ conv2d_93[0][0]   │
│ (BatchNormalizatio… │                   │            │                   │
├─────────────────────┼───────────────────┼────────────┼───────────────────┤
│ activation_87       │ (None, 8, 8, 384) │          0 │ batch_normalizat… │
│ (Activation)        │                   │            │                   │
├─────────────────────┼───────────────────┼────────────┼───────────────────┤
│ activation_88       │ (None, 8, 8, 384) │          0 │ batch_normalizat… │
│ (Activation)        │                   │            │                   │
├─────────────────────┼───────────────────┼────────────┼───────────────────┤
│ activation_91       │ (None, 8, 8, 384) │          0 │ batch_normalizat… │
│ (Activation)        │                   │            │                   │
├─────────────────────┼───────────────────┼────────────┼───────────────────┤
│ activation_92       │ (None, 8, 8, 384) │          0 │ batch_normalizat… │
│ (Activation)        │                   │            │                   │
├─────────────────────┼───────────────────┼────────────┼───────────────────┤
│ batch_normalizatio… │ (None, 8, 8, 192) │        576 │ conv2d_101[0][0]  │
│ (BatchNormalizatio… │                   │            │                   │
├─────────────────────┼───────────────────┼────────────┼───────────────────┤
│ activation_85       │ (None, 8, 8, 320) │          0 │ batch_normalizat… │
│ (Activation)        │                   │            │                   │
├─────────────────────┼───────────────────┼────────────┼───────────────────┤
│ mixed9_1            │ (None, 8, 8, 768) │          0 │ activation_87[0]… │
│ (Concatenate)       │                   │            │ activation_88[0]… │
├─────────────────────┼───────────────────┼────────────┼───────────────────┤
│ concatenate_1       │ (None, 8, 8, 768) │          0 │ activation_91[0]… │
│ (Concatenate)       │                   │            │ activation_92[0]… │
├─────────────────────┼───────────────────┼────────────┼───────────────────┤
│ activation_93       │ (None, 8, 8, 192) │          0 │ batch_normalizat… │
│ (Activation)        │                   │            │                   │
├─────────────────────┼───────────────────┼────────────┼───────────────────┤
│ mixed10             │ (None, 8, 8,      │          0 │ activation_85[0]… │
│ (Concatenate)       │ 2048)             │            │ mixed9_1[0][0],   │
│                     │                   │            │ concatenate_1[0]… │
│                     │                   │            │ activation_93[0]… │
├─────────────────────┼───────────────────┼────────────┼───────────────────┤
│ avg_pool            │ (None, 2048)      │          0 │ mixed10[0][0]     │
│ (GlobalAveragePool… │                   │            │                   │
├─────────────────────┼───────────────────┼────────────┼───────────────────┤
│ predictions (Dense) │ (None, 1000)      │  2,049,000 │ avg_pool[0][0]    │
└─────────────────────┴───────────────────┴────────────┴───────────────────┘
 Total params: 23,851,784 (90.99 MB)
 Trainable params: 23,817,352 (90.86 MB)
 Non-trainable params: 34,432 (134.50 KB)
Model: "resnet50"
┏━━━━━━━━━━━━━━━━━━━━━┳━━━━━━━━━━━━━━━━━━━┳━━━━━━━━━━━━┳━━━━━━━━━━━━━━━━━━━┓
┃ Layer (type)        ┃ Output Shape      ┃    Param # ┃ Connected to      ┃
┡━━━━━━━━━━━━━━━━━━━━━╇━━━━━━━━━━━━━━━━━━━╇━━━━━━━━━━━━╇━━━━━━━━━━━━━━━━━━━┩
…
│ (BatchNormalizatio… │ 1024)             │            │                   │
├─────────────────────┼───────────────────┼────────────┼───────────────────┤
│ conv4_block6_add    │ (None, 14, 14,    │          0 │ conv4_block5_out… │
│ (Add)               │ 1024)             │            │ conv4_block6_3_b… │
├─────────────────────┼───────────────────┼────────────┼───────────────────┤
│ conv4_block6_out    │ (None, 14, 14,    │          0 │ conv4_block6_add… │
│ (Activation)        │ 1024)             │            │                   │
├─────────────────────┼───────────────────┼────────────┼───────────────────┤
│ conv5_block1_1_conv │ (None, 7, 7, 512) │    524,800 │ conv4_block6_out… │
│ (Conv2D)            │                   │            │                   │
├─────────────────────┼───────────────────┼────────────┼───────────────────┤
│ conv5_block1_1_bn   │ (None, 7, 7, 512) │      2,048 │ conv5_block1_1_c… │
│ (BatchNormalizatio… │                   │            │                   │
├─────────────────────┼───────────────────┼────────────┼───────────────────┤
│ conv5_block1_1_relu │ (None, 7, 7, 512) │          0 │ conv5_block1_1_b… │
│ (Activation)        │                   │            │                   │
├─────────────────────┼───────────────────┼────────────┼───────────────────┤
│ conv5_block1_2_conv │ (None, 7, 7, 512) │  2,359,808 │ conv5_block1_1_r… │
│ (Conv2D)            │                   │            │                   │
├─────────────────────┼───────────────────┼────────────┼───────────────────┤
│ conv5_block1_2_bn   │ (None, 7, 7, 512) │      2,048 │ conv5_block1_2_c… │
│ (BatchNormalizatio… │                   │            │                   │
├─────────────────────┼───────────────────┼────────────┼───────────────────┤
│ conv5_block1_2_relu │ (None, 7, 7, 512) │          0 │ conv5_block1_2_b… │
│ (Activation)        │                   │            │                   │
├─────────────────────┼───────────────────┼────────────┼───────────────────┤
│ conv5_block1_0_conv │ (None, 7, 7,      │  2,099,200 │ conv4_block6_out… │
│ (Conv2D)            │ 2048)             │            │                   │
├─────────────────────┼───────────────────┼────────────┼───────────────────┤
…
│ (BatchNormalizatio… │ 2048)             │            │                   │
├─────────────────────┼───────────────────┼────────────┼───────────────────┤
│ conv5_block1_add    │ (None, 7, 7,      │          0 │ conv5_block1_0_b… │
│ (Add)               │ 2048)             │            │ conv5_block1_3_b… │
├─────────────────────┼───────────────────┼────────────┼───────────────────┤
│ conv5_block1_out    │ (None, 7, 7,      │          0 │ conv5_block1_add… │
│ (Activation)        │ 2048)             │            │                   │
├─────────────────────┼───────────────────┼────────────┼───────────────────┤
│ conv5_block2_1_conv │ (None, 7, 7, 512) │  1,049,088 │ conv5_block1_out… │
│ (Conv2D)            │                   │            │                   │
├─────────────────────┼───────────────────┼────────────┼───────────────────┤
│ conv5_block2_1_bn   │ (None, 7, 7, 512) │      2,048 │ conv5_block2_1_c… │
│ (BatchNormalizatio… │                   │            │                   │
├─────────────────────┼───────────────────┼────────────┼───────────────────┤
│ conv5_block2_1_relu │ (None, 7, 7, 512) │          0 │ conv5_block2_1_b… │
│ (Activation)        │                   │            │                   │
├─────────────────────┼───────────────────┼────────────┼───────────────────┤
│ conv5_block2_2_conv │ (None, 7, 7, 512) │  2,359,808 │ conv5_block2_1_r… │
│ (Conv2D)            │                   │            │                   │
├─────────────────────┼───────────────────┼────────────┼───────────────────┤
│ conv5_block2_2_bn   │ (None, 7, 7, 512) │      2,048 │ conv5_block2_2_c… │
│ (BatchNormalizatio… │                   │            │                   │
├─────────────────────┼───────────────────┼────────────┼───────────────────┤
│ conv5_block2_2_relu │ (None, 7, 7, 512) │          0 │ conv5_block2_2_b… │
│ (Activation)        │                   │            │                   │
├─────────────────────┼───────────────────┼────────────┼───────────────────┤
│ conv5_block2_3_conv │ (None, 7, 7,      │  1,050,624 │ conv5_block2_2_r… │
│ (Conv2D)            │ 2048)             │            │                   │
├─────────────────────┼───────────────────┼────────────┼───────────────────┤
…
│ (BatchNormalizatio… │ 2048)             │            │                   │
├─────────────────────┼───────────────────┼────────────┼───────────────────┤
│ conv5_block3_add    │ (None, 7, 7,      │          0 │ conv5_block2_out… │
│ (Add)               │ 2048)             │            │ conv5_block3_3_b… │
├─────────────────────┼───────────────────┼────────────┼───────────────────┤
│ conv5_block3_out    │ (None, 7, 7,      │          0 │ conv5_block3_add… │
│ (Activation)        │ 2048)             │            │                   │
├─────────────────────┼───────────────────┼────────────┼───────────────────┤
│ avg_pool            │ (None, 2048)      │          0 │ conv5_block3_out… │
│ (GlobalAveragePool… │                   │            │                   │
├─────────────────────┼───────────────────┼────────────┼───────────────────┤
│ predictions (Dense) │ (None, 1000)      │  2,049,000 │ avg_pool[0][0]    │
└─────────────────────┴───────────────────┴────────────┴───────────────────┘
 Total params: 25,636,712 (97.80 MB)
 Trainable params: 25,583,592 (97.59 MB)
 Non-trainable params: 53,120 (207.50 KB)
Model: "sequential_2"
┏━━━━━━━━━━━━━━━━━━━━━━━━━━━━━━━━━┳━━━━━━━━━━━━━━━━━━━━━━━━┳━━━━━━━━━━━━━━━┓
┃ Layer (type)                    ┃ Output Shape           ┃       Param # ┃
┡━━━━━━━━━━━━━━━━━━━━━━━━━━━━━━━━━╇━━━━━━━━━━━━━━━━━━━━━━━━╇━━━━━━━━━━━━━━━┩
│ conv2d_102 (Conv2D)             │ (None, 28, 28, 6)      │           156 │
├─────────────────────────────────┼────────────────────────┼───────────────┤
│ average_pooling2d_11            │ (None, 14, 14, 6)      │             0 │
│ (AveragePooling2D)              │                        │               │
├─────────────────────────────────┼────────────────────────┼───────────────┤
│ conv2d_103 (Conv2D)             │ (None, 10, 10, 16)     │         2,416 │
├─────────────────────────────────┼────────────────────────┼───────────────┤
│ average_pooling2d_12            │ (None, 5, 5, 16)       │             0 │
│ (AveragePooling2D)              │                        │               │
├─────────────────────────────────┼────────────────────────┼───────────────┤
│ flatten_2 (Flatten)             │ (None, 400)            │             0 │
├─────────────────────────────────┼────────────────────────┼───────────────┤
│ dense_6 (Dense)                 │ (None, 120)            │        48,120 │
├─────────────────────────────────┼────────────────────────┼───────────────┤
│ dense_7 (Dense)                 │ (None, 84)             │        10,164 │
├─────────────────────────────────┼────────────────────────┼───────────────┤
│ dense_8 (Dense)                 │ (None, 10)             │           850 │
└─────────────────────────────────┴────────────────────────┴───────────────┘
 Total params: 61,706 (241.04 KB)
 Trainable params: 61,706 (241.04 KB)
 Non-trainable params: 0 (0.00 B)
Model: "sequential_3"
┏━━━━━━━━━━━━━━━━━━━━━━━━━━━━━━━━━┳━━━━━━━━━━━━━━━━━━━━━━━━┳━━━━━━━━━━━━━━━┓
┃ Layer (type)                    ┃ Output Shape           ┃       Param # ┃
┡━━━━━━━━━━━━━━━━━━━━━━━━━━━━━━━━━╇━━━━━━━━━━━━━━━━━━━━━━━━╇━━━━━━━━━━━━━━━┩
│ conv2d_104 (Conv2D)             │ (None, 55, 55, 96)     │        34,944 │
├─────────────────────────────────┼────────────────────────┼───────────────┤
│ max_pooling2d_7 (MaxPooling2D)  │ (None, 27, 27, 96)     │             0 │
├─────────────────────────────────┼────────────────────────┼───────────────┤
│ conv2d_105 (Conv2D)             │ (None, 27, 27, 256)    │       614,656 │
├─────────────────────────────────┼────────────────────────┼───────────────┤
│ max_pooling2d_8 (MaxPooling2D)  │ (None, 13, 13, 256)    │             0 │
├─────────────────────────────────┼────────────────────────┼───────────────┤
│ conv2d_106 (Conv2D)             │ (None, 13, 13, 384)    │       885,120 │
├─────────────────────────────────┼────────────────────────┼───────────────┤
│ conv2d_107 (Conv2D)             │ (None, 13, 13, 384)    │     1,327,488 │
├─────────────────────────────────┼────────────────────────┼───────────────┤
│ conv2d_108 (Conv2D)             │ (None, 13, 13, 256)    │       884,992 │
├─────────────────────────────────┼────────────────────────┼───────────────┤
│ max_pooling2d_9 (MaxPooling2D)  │ (None, 6, 6, 256)      │             0 │
├─────────────────────────────────┼────────────────────────┼───────────────┤
│ flatten_3 (Flatten)             │ (None, 9216)           │             0 │
├─────────────────────────────────┼────────────────────────┼───────────────┤
│ dense_9 (Dense)                 │ (None, 4096)           │    37,752,832 │
├─────────────────────────────────┼────────────────────────┼───────────────┤
│ dropout_2 (Dropout)             │ (None, 4096)           │             0 │
├─────────────────────────────────┼────────────────────────┼───────────────┤
│ dense_10 (Dense)                │ (None, 4096)           │    16,781,312 │
├─────────────────────────────────┼────────────────────────┼───────────────┤
│ dropout_3 (Dropout)             │ (None, 4096)           │             0 │
├─────────────────────────────────┼────────────────────────┼───────────────┤
│ dense_11 (Dense)                │ (None, 1000)           │     4,097,000 │
└─────────────────────────────────┴────────────────────────┴───────────────┘
 Total params: 62,378,344 (237.95 MB)
 Trainable params: 62,378,344 (237.95 MB)
 Non-trainable params: 0 (0.00 B)
Model: "vgg16"
┏━━━━━━━━━━━━━━━━━━━━━━━━━━━━━━━━━┳━━━━━━━━━━━━━━━━━━━━━━━━┳━━━━━━━━━━━━━━━┓
┃ Layer (type)                    ┃ Output Shape           ┃       Param # ┃
┡━━━━━━━━━━━━━━━━━━━━━━━━━━━━━━━━━╇━━━━━━━━━━━━━━━━━━━━━━━━╇━━━━━━━━━━━━━━━┩
│ input_layer_7 (InputLayer)      │ (None, 224, 224, 3)    │             0 │
├─────────────────────────────────┼────────────────────────┼───────────────┤
│ block1_conv1 (Conv2D)           │ (None, 224, 224, 64)   │         1,792 │
├─────────────────────────────────┼────────────────────────┼───────────────┤
│ block1_conv2 (Conv2D)           │ (None, 224, 224, 64)   │        36,928 │
├─────────────────────────────────┼────────────────────────┼───────────────┤
│ block1_pool (MaxPooling2D)      │ (None, 112, 112, 64)   │             0 │
├─────────────────────────────────┼────────────────────────┼───────────────┤
│ block2_conv1 (Conv2D)           │ (None, 112, 112, 128)  │        73,856 │
├─────────────────────────────────┼────────────────────────┼───────────────┤
│ block2_conv2 (Conv2D)           │ (None, 112, 112, 128)  │       147,584 │
├─────────────────────────────────┼────────────────────────┼───────────────┤
│ block2_pool (MaxPooling2D)      │ (None, 56, 56, 128)    │             0 │
├─────────────────────────────────┼────────────────────────┼───────────────┤
│ block3_conv1 (Conv2D)           │ (None, 56, 56, 256)    │       295,168 │
├─────────────────────────────────┼────────────────────────┼───────────────┤
│ block3_conv2 (Conv2D)           │ (None, 56, 56, 256)    │       590,080 │
├─────────────────────────────────┼────────────────────────┼───────────────┤
│ block3_conv3 (Conv2D)           │ (None, 56, 56, 256)    │       590,080 │
├─────────────────────────────────┼────────────────────────┼───────────────┤
│ block3_pool (MaxPooling2D)      │ (None, 28, 28, 256)    │             0 │
├─────────────────────────────────┼────────────────────────┼───────────────┤
│ block4_conv1 (Conv2D)           │ (None, 28, 28, 512)    │     1,180,160 │
├─────────────────────────────────┼────────────────────────┼───────────────┤
│ block4_conv2 (Conv2D)           │ (None, 28, 28, 512)    │     2,359,808 │
├─────────────────────────────────┼────────────────────────┼───────────────┤
│ block4_conv3 (Conv2D)           │ (None, 28, 28, 512)    │     2,359,808 │
├─────────────────────────────────┼────────────────────────┼───────────────┤
│ block4_pool (MaxPooling2D)      │ (None, 14, 14, 512)    │             0 │
├─────────────────────────────────┼────────────────────────┼───────────────┤
│ block5_conv1 (Conv2D)           │ (None, 14, 14, 512)    │     2,359,808 │
├─────────────────────────────────┼────────────────────────┼───────────────┤
│ block5_conv2 (Conv2D)           │ (None, 14, 14, 512)    │     2,359,808 │
├─────────────────────────────────┼────────────────────────┼───────────────┤
│ block5_conv3 (Conv2D)           │ (None, 14, 14, 512)    │     2,359,808 │
├─────────────────────────────────┼────────────────────────┼───────────────┤
│ block5_pool (MaxPooling2D)      │ (None, 7, 7, 512)      │             0 │
├─────────────────────────────────┼────────────────────────┼───────────────┤
│ flatten (Flatten)               │ (None, 25088)          │             0 │
├─────────────────────────────────┼────────────────────────┼───────────────┤
│ fc1 (Dense)                     │ (None, 4096)           │   102,764,544 │
├─────────────────────────────────┼────────────────────────┼───────────────┤
│ fc2 (Dense)                     │ (None, 4096)           │    16,781,312 │
├─────────────────────────────────┼────────────────────────┼───────────────┤
│ predictions (Dense)             │ (None, 1000)           │     4,097,000 │
└─────────────────────────────────┴────────────────────────┴───────────────┘
 Total params: 138,357,544 (527.79 MB)
 Trainable params: 138,357,544 (527.79 MB)
 Non-trainable params: 0 (0.00 B)
Model: "inception_v3"
┏━━━━━━━━━━━━━━━━━━━━━┳━━━━━━━━━━━━━━━━━━━┳━━━━━━━━━━━━┳━━━━━━━━━━━━━━━━━━━┓
┃ Layer (type)        ┃ Output Shape      ┃    Param # ┃ Connected to      ┃
┡━━━━━━━━━━━━━━━━━━━━━╇━━━━━━━━━━━━━━━━━━━╇━━━━━━━━━━━━╇━━━━━━━━━━━━━━━━━━━┩
…
